…
To enable them in other operations, rebuild TensorFlow with the appropriate compiler flags.
2024-05-18 17:02:31.162727: I tensorflow/core/common_runtime/gpu/gpu_device.cc:1616] Created device /job:localhost/replica:0/task:0/device:GPU:0 with 2771 MB memory:  -> device: 0, name: NVIDIA GeForce GTX 1050 Ti with Max-Q Design, pci bus id: 0000:01:00.0, compute capability: 6.1
Model: "sequential"
_________________________________________________________________
 Layer (type)                Output Shape              Param #
=================================================================
 mobilenet_1.00_224 (Functio  (None, 7, 7, 1024)       3228864
 nal)

 global_average_pooling2d (G  (None, 1024)             0
 lobalAveragePooling2D)

 batch_normalization (BatchN  (None, 1024)             4096
 ormalization)

 dropout (Dropout)           (None, 1024)              0

 dense (Dense)               (None, 256)               262400

 dense_1 (Dense)             (None, 1)                 257

=================================================================
Total params: 3,495,617
Trainable params: 3,457,921
Non-trainable params: 37,696
_________________________________________________________________
---------------------best_model-----------------------
acc: 0.9815
loss: 0.0604
val_acc: 0.9258
val_loss: 0.2249
---------------------last_epoch_model-----------------------
acc: 0.9869
…
